…
40, 3, 4]) [128, 128, 71.07920094906835, 3.0] ['data/RS307', 'data/RS315', 'data/RS330', 'data/RS615']
Dataset RS307_0_i2
    Number of datapoints: 4320
    Root location: ['data/RS307', 'data/RS315', 'data/RS330', 'data/RS615']
    StandardTransform
Transform: Compose(
               Resize(size=128, interpolation=bilinear, max_size=None, antialias=None)
               ToTensor()
               Lambda()
           ) [128, 128, (3.0, 3.0), 3.0] torch.Size([40, 3, 4])
Dataset size: 4320
Generator params: 728196
Discriminator params: 2638336, channels: 3
NeRF(
  (pts_linears): ModuleList(
    (0): Linear(in_features=319, out_features=256, bias=True)
    (1): Linear(in_features=256, out_features=256, bias=True)
    (2): Linear(in_features=256, out_features=256, bias=True)
    (3): Linear(in_features=256, out_features=256, bias=True)
    (4): Linear(in_features=256, out_features=256, bias=True)
    (5): Linear(in_features=575, out_features=256, bias=True)
    (6): Linear(in_features=256, out_features=256, bias=True)
    (7): Linear(in_features=256, out_features=256, bias=True)
  )
  (views_linears): ModuleList(
    (0): Linear(in_features=283, out_features=128, bias=True)
  )
  (cond): Linear(in_features=4, out_features=256, bias=True)
  (feature_linear): Linear(in_features=256, out_features=256, bias=True)
  (alpha_linear): Linear(in_features=256, out_features=1, bias=True)
  (rgb_linear): Linear(in_features=128, out_features=3, bias=True)
)
Discriminator(
  (conv_out): Conv2d(512, 1, kernel_size=(4, 4), stride=(1, 1), bias=False)
  (main): Sequential(
    (0): Conv2d(3, 128, kernel_size=(4, 4), stride=(2, 2), padding=(1, 1), bias=False)
    (1): InstanceNorm2d(128, eps=1e-05, momentum=0.1, affine=False, track_running_stats=False)
    (2): LeakyReLU(negative_slope=0.2, inplace=True)
    (3): Conv2d(128, 256, kernel_size=(4, 4), stride=(2, 2), padding=(1, 1), bias=False)
    (4): InstanceNorm2d(256, eps=1e-05, momentum=0.1, affine=False, track_running_stats=False)
    (5): LeakyReLU(negative_slope=0.2, inplace=True)
    (6): Conv2d(256, 512, kernel_size=(4, 4), stride=(2, 2), padding=(1, 1), bias=False)
    (7): InstanceNorm2d(512, eps=1e-05, momentum=0.1, affine=False, track_running_stats=False)
    (8): LeakyReLU(negative_slope=0.2, inplace=True)
  )
  (cond_encoder): Linear(in_features=4, out_features=512, bias=True)
)
posetest:tensor([[[ … )
labeltest:tensor([[  0,   0, 359],
        [  0,   0,  89],
        [  0,   0, 179],
        [  0,   0, 269],
        [  0,   1, 359],
        [  0,   1,  89],
        [  0,   1, 179],
        [  0,   1, 269]])
WARNING: Total number of images smaller than 20000, changing n_samples to 4320!
it -1: start with LR:
	d_lr: 0.0001	g_lr: 0.0007
…
